…
c:\Users\Gabriel\anaconda3\envs\cudaenv\Lib\site-packages\torch\functional.py:539: UserWarning: torch.meshgrid: in an upcoming release, it will be required to pass the indexing argument. (Triggered internally at C:\actions-runner\_work\pytorch\pytorch\pytorch\aten\src\ATen\native\TensorShape.cpp:4312.)
  return _VF.meshgrid(tensors, **kwargs)  # type: ignore[attr-defined]
torch.Size([1, 3])
====================================================================================================
Layer (type:depth-idx)                             Output Shape              Param #
====================================================================================================
SwinTransformer                                    [1, 3]                    --
├─PatchEmbed: 1-1                                  [1, 3136, 96]             --
│    └─Conv2d: 2-1                                 [1, 96, 56, 56]           4,704
│    └─LayerNorm: 2-2                              [1, 3136, 96]             192
├─Dropout: 1-2                                     [1, 3136, 96]             --
├─ModuleList: 1-3                                  --                        --
│    └─BasicLayer: 2-3                             [1, 784, 192]             --
│    │    └─ModuleList: 3-1                        --                        224,694
│    │    └─PatchMerging: 3-2                      [1, 784, 192]             74,496
│    └─BasicLayer: 2-4                             [1, 196, 384]             --
│    │    └─ModuleList: 3-3                        --                        891,756
│    │    └─PatchMerging: 3-4                      [1, 196, 384]             296,448
│    └─BasicLayer: 2-5                             [1, 49, 768]              --
│    │    └─ModuleList: 3-5                        --                        10,658,952
│    │    └─PatchMerging: 3-6                      [1, 49, 768]              1,182,720
│    └─BasicLayer: 2-6                             [1, 49, 768]              --
│    │    └─ModuleList: 3-7                        --                        14,183,856
├─LayerNorm: 1-4                                   [1, 49, 768]              1,536
├─AdaptiveAvgPool1d: 1-5                           [1, 768, 1]               --
├─Linear: 1-6                                      [1, 3]                    2,307
====================================================================================================
Total params: 27,521,661
Trainable params: 27,521,661
Non-trainable params: 0
Total mult-adds (Units.MEGABYTES): 62.03
====================================================================================================
Input size (MB): 0.60
Forward/backward pass size (MB): 137.28
Params size (MB): 109.99
…
